g4app/assets/v21.tflite (tflite, 3168 bytes, 5 tensors)

sequential_7/dense_22/BiasAdd/ReadVariableOp f4 [4]
-0.23359792 -0.52083224 -0.58239853 -0.50953597
00000000: 4b34 6fbe 4355 05bf 1218 15bf f370 02bf

sequential_7/dense_21/BiasAdd/ReadVariableOp f4 [8]
-0.488082 -0.2686999 -0.23276803 0.06275482 0.7106739 0.45404366 -0.13802592 0.13053226
00000000: e2e5 f9be 0993 89be be5a 6ebe 9985 803d
00000010: baee 353f 6978 e83e ab56 0dbe 40aa 053e

sequential_7/dense_21/MatMul f4 [8, 28]
-0.25398746 -0.32374546 -0.06933415 -0.059935424 0.21343434 -0.5670262 0.23597951 -0.28606698
-0.23003891 -0.061301656 -0.5683273 0.1328136 -0.2891449 0.105410196 0.16505398 -0.8312401
0.306819 0.18593766 0.089196675 -0.21194643 -0.14069043 -0.14414224 -0.1522094 0.11544996
0.23379287 -0.6986814 -0.54853344 0.63443726 -0.23949169 0.24379833 -0.08053095 0.37532583
0.15525371 0.20212252 0.39599696 -0.2224726 -0.009109618 0.20952554 0.49595368 -0.09081527
0.19314551 0.3059938 -0.3630367 0.76053774 -0.3207408 0.21746169 0.14867459 0.229385
-0.3056342 -0.382727 0.8126565 0.51779395 -0.3452008 0.724195 -0.24654293 0.25554755
0.15614183 0.24181806 -0.060692903 0.44941083 -0.23379973 -0.019117635 -0.7462155 0.5529032
0.18747082 -0.15762675 -0.35038576 -0.007333198 -0.0418756 -0.8752117 -0.2460282 0.4316447
0.13244374 -0.2664299 0.12329381 -0.076678 -0.6981773 0.2564556 0.0896554 -0.36068815
-0.008090656 -0.12407057 0.30005533 -0.5561091 -0.1956617 0.10180613 0.23460682 -0.611998
-0.6569972 0.3410958 0.19998264 -0.9093655 -0.11196415 0.10965376 -0.4783212 0.030167324
0.156514 0.036382753 0.19583972 0.50280917 0.1710755 -0.48471463 -0.07304381 0.30528504
0.06516542 0.22864556 0.066433184 -0.3067276 0.032788903 -0.26634678 0.36326337 0.08410679
0.2305388 0.10043091 0.06724264 -0.65047985 0.09577516 0.48674604 -0.010878082 -0.0014097298
-0.1614692 0.029015863 -0.6459093 -0.044190448 -0.48066658 -0.62659234 0.34063765 0.3096193
0.044803686 0.03917306 -0.3665235 -0.23881578 -0.4507693 -0.23985676 0.10522481 -0.0825918
-0.24799089 0.035330728 -0.17887159 -0.19909629 0.6947916 0.12909284 -0.4767098 0.4419345
0.91399056 0.17541721 -0.18701616 -0.09512406 -0.51362133 -0.2228792 -0.40271246 -0.48493406
-0.30992046 0.13339598 -0.14557612 -1.0094529 -0.7726961 0.5362598 -0.23128496 -0.4321991
0.36190015 0.7243586 -0.069041856 0.22237764 -0.21099697 0.16365536 0.16695926 0.37144366
0.04108719 0.0038510002 0.065574385 -0.49291953 -0.19281955 -0.15467536 0.09662478 0.26376668
-0.13572976 -1.0254579 -0.2486211 -0.13894822 -0.39032516 0.8366099 -0.3800149 -0.24312031
-1.0164878 0.41500986 -0.862156 -0.04684631 0.22722048 -0.1742513 -0.41504183 0.40141997
0.36964172 -0.33614784 0.31381392 0.08176943 -0.16754793 0.01679272 -0.076590836 0.91286874
0.108063936 -0.053587127 -0.25078505 -0.78896606 0.24482791 -0.40136984 -0.25525525 0.4363
0.18244483 1.4029557 -0.064537086 0.19844234 -0.032248188 0.7779502 -0.054794982 -0.19034438
-0.14273545 0.24285415 -0.68391734 -0.36359093 -0.03530931 -0.61542827 -0.15714774 0.20394266
00000000: a50a 82be f7c1 a5be 10ff 8dbd d97e 75bd
00000010: 888e 5a3e a128 11bf 9da4 713e 5f77 92be
00000020: 528f 6bbe 7217 7bbd e67d 11bf 4a00 083e
00000030: cd0a 94be 4de1 d73d e903 293e 27cc 54bf
00000040: 6117 9d3e 7166 3e3e bfac b63d 7c08 59be
00000050: 2711 10be 069a 13be c8dc 1bbe 0771 ec3d
00000060: 6667 6f3e c9dc 32bf b06c 0cbf 7b6a 223f
00000070: 4f3d 75be 45a6 793e 69ed a4bd b52a c03e
00000080: d4fa 1e3e 35f9 4e3e 1dc0 ca3e dbcf 63be
00000090: 8240 15bc dd8d 563e a4ed fd3e 5bfd b9bd
000000a0: f0c7 453e 38ab 9c3e f2df b9be 9ab2 423f
000000b0: 2338 a4be 47ae 5e3e 273e 183e e7e3 6a3e
000000c0: 167c 9cbe cbf4 c3be 420a 503f 258e 043f
000000d0: 29be b0be d864 393f c075 7cbe 21d7 823e
000000e0: a5e3 1f3e 279f 773e 1f99 78bd 2d19 e63e
000000f0: 3269 6fbe 969c 9cbc fb07 3fbf 108b 0d3f
00000100: 5af8 3f3e e868 21be c365 b3be 534b f0bb
00000110: c085 2bbd e00d 60bf d1ee 7bbe 8900 dd3e
00000120: 559f 073e 8069 88be 7781 fc3d 5b09 9dbd
00000130: bfbb 32bf 264e 833e 409d b73d 1eac b8be
00000140: ac8e 04bc b618 febd daa0 993e 2a5d 0ebf
00000150: 8a5b 48be bb7f d03d c53c 703e e7ab 1cbf
00000160: f830 28bf 1ca4 ae3e 40c8 4c3e 2dcc 68bf
00000170: 764d e5bd 2792 e03d 84e6 f4be 7721 f73c
00000180: 3545 203e 1506 153d 358a 483e 1ab8 003f
00000190: 6a2e 2f3e 842c f8be fe97 95bd 524e 9c3e
000001a0: 7375 853d 1022 6a3e 1f0e 883d 660b 9dbe
000001b0: a84d 063d 9b5e 88be a8fd b93e 2e40 ac3d
000001c0: 5d12 6c3e b9ae cd3d 82b6 893d d985 26bf
000001d0: c425 c43d c736 f93e fc39 32bc afc6 b8ba
000001e0: 2f58 25be adb2 ed3c 505a 25bf 0b01 35bd
000001f0: ee19 f6be 5b68 20bf 0f68 ae3e 6c86 9e3e
00000200: 1284 373d ee73 203d f8a8 bbbe 208c 74be
00000210: 3ccb e6be 039d 75be 1b80 d73d e425 a9bd
00000220: 53f1 7dbe f4b6 103d 1d2a 37be e6df 4bbe
00000230: dddd 313f ea30 043e 4f13 f4be 3d45 e23e
00000240: 49fb 693f 92a0 333e 2a81 3fbe 67d0 c2bd
00000250: b07c 03bf 723a 64be 5430 cebe 4749 f8be
00000260: e5ad 9ebe f598 083e e811 15be c135 81bf
00000270: 69cf 45bf 5248 093f f7d5 6cbe 3349 ddbe
00000280: fa4a b93e 916f 393f d165 8dbd f7b6 633e
00000290: 970f 58be 4595 273e 5ef7 2a3e dd2d be3e
000002a0: 0b4b 283d 1061 7c3b dd4b 863d f35f fcbe
000002b0: 7d72 45be 3863 1ebe 36e3 c53d 6d0c 873e
000002c0: befc 0abe 3442 83bf 8896 7ebe 7148 0ebe
000002d0: b3d8 c7be 112c 563f 5091 c2be 88f4 78be
000002e0: 461c 82bf 2c7c d43e 41b6 5cbf ebe1 3fbd
000002f0: 7cac 683e ef6e 32be 5d80 d4be eb86 cd3e
00000300: ae41 bd3e 921b acbe 38ac a03e bb76 a73d
00000310: af91 2bbe e390 893c a8db 9cbd c4b1 693f
00000320: a050 dd3d 2d7e 5bbd e666 80be aef9 49bf
00000330: 2bb4 7a3e 5980 cdbe d1b0 82be b762 df3e
00000340: d1d2 3a3e 0d94 b33f 052c 84bd 7834 4b3e
00000350: ad16 04bd bf27 473f b470 60bd a3e9 42be
00000360: 3e29 12be c2ae 783e 3515 2fbf 9728 babe
00000370: 7fa0 10bd b58c 1dbf 56eb 20be 58d6 503e

sequential_7/dense_22/MatMul f4 [4, 8]
-0.28821856 -0.16773175 -0.13074924 -0.043907933 -0.31653562 0.07942756 -0.45265734 -0.34877697
2.4695735 2.3166387 -0.9006954 1.3027514 2.1480825 2.0468774 -0.8128654 0.5983433
2.752443 2.6608253 -1.0154247 1.4709592 2.4212646 2.3537822 -0.91497695 0.6742895
0.35328126 2.1651602 0.30411127 -0.69131595 -0.56516385 0.14937066 0.2984772 -0.1286604
00000000: 6291 93be dfc1 2bbe 21e3 05be ced8 33bd
00000010: f510 a2be ebaa a23d b4c2 e7be e592 b2be
00000020: 7e0d 1e40 cf43 1440 f993 66bf 8fc0 a63f
00000030: 2f7a 0940 0a00 0340 f217 50bf 072d 193f
00000040: 0728 3040 f64a 2a40 70f9 81bf 6448 bc3f
00000050: 00f6 1a40 5ea4 1640 ee3b 6abf 3d9e 2c3f
00000060: 48e1 b43e fc91 0a40 79b4 9b3e 15fa 30bf
00000070: 94ae 10bf 9ff4 183e 01d2 983e 8dbf 03be

sequential_7/dense_23/MatMul f4 [1, 4]
0.571775 -5.003184 -5.625714 -1.8061198
00000000: d95f 123f 151a a0c0 d905 b4c0 ef2e e7bf
