ml/models/v1.tflite (tflite, 8384 bytes, 5 tensors)

sequential/dense/BiasAdd/ReadVariableOp f4 [8]
00000000: 23cb 403f a1b5 1a3f 44e6 383e d6f9 083f
00000010: 1f48 0f3f 5d60 ad3e e300 103f 46b3 b8be
0.7530996 0.60433394 0.1805659 0.5350622 0.55969423 0.33862582 0.56251353 -0.36074275

sequential/dense_1/BiasAdd/ReadVariableOp f4 [4]
00000000: 91a1 373e 9d3c cabe a613 d9bd 3798 21bf
0.17932726 -0.3949937 -0.10599451 -0.63122886

sequential/dense/Tensordot/MatMul f4 [8, 28]
00000000: 045f 083f b644 af3c 4233 8cbf 50aa 093d
00000010: f22f 433f 5e43 683f 653f d93e 0ca9 15bf
00000020: 8ab5 6cbf 0f60 c0be 1f62 2fbe 63f3 6dbf
00000030: 993c 53be afc8 1cbf 3da4 873e af04 4abf
00000040: 588c 88bf 9a72 debe f4fd dabe 200b 03bf
00000050: a937 ab3e 5ce6 8e3f 2876 203f 3244 9d3b
00000060: 6a1b 003f 223c 353f 778a 1a3f ddb5 bd3e
00000070: a786 b43e 8d23 023f 525d 723e a877 90bd
00000080: 5338 413f 9d12 d83d 390e 58be ea1f b2bd
00000090: b6fc ffbd 78ca a83c 7bba cfbe aca1 b3bc
000000a0: 9d1e b8be a1b9 483f 29c5 c2be 1fef df3e
000000b0: 2728 bc3e b38f ad3d 599f 433c f2c4 a7bd
000000c0: f8f8 d4be 6fdd 90bd ed8b e73d d68d 453f
000000d0: 95d4 033e 6f95 a63e 8e06 debe 4954 233e
000000e0: 8569 963e 9df6 39bf c43d 943e 3acf 1b3d
000000f0: 9bb3 003e d41b 803f 8a89 4abf f1b1 babe
00000100: b343 173f 24d1 823f f7ac 413e 14b5 4c3c
00000110: 790d d13e 9f76 b3be b9bd 853e bbc0 70be
00000120: d598 c93e f5e5 2b3d 2229 6f3e 7d69 223f
00000130: cd29 39bf 0233 76bd 337d a23d 28ea 5ebe
00000140: 703c b43d daff c3be 376b 95be 13cd 24bf
00000150: 00b9 15be 63d1 293f 80ec de3d 610b acbe
00000160: e447 03be a92c 463f a0b8 b43e 196e e03d
00000170: 2543 8c3e 9891 7dbe 5219 28be 252f 02bd
00000180: 9de9 953e 0781 f33e a2b1 4dbe 9eb5 eb3e
00000190: 9eb6 35be 384c d3bd 7f61 cc3e 9af5 f93e
000001a0: da95 bd3e 81fc 38bd 3507 c6bc a2b1 683c
000001b0: 6085 fabe 5b92 f63d 7215 063f 2f4a 6a3f
000001c0: 9c96 773d f19f 88be 5bb9 0bbe 5a84 6ebc
000001d0: 22a8 acbe c9d8 4fbf 0361 a3be 7203 b03e
000001e0: 6078 2ebe 1744 6f3e 733d 8e3e 1878 19be
000001f0: a91c 6c3d 13b8 533f 0d0e c13e 46c7 48bf
00000200: f758 71be 869f 203f cc64 09bf 4b6a 7cbe
00000210: f190 89be 1562 85be e68f d7be 8011 4c3d
00000220: d094 8bbe 9bd0 ecbe 9732 0f3e bf5e e9be
00000230: 0f0f 82bd 130d e2bc f484 303d d9de 863e
00000240: 9301 88bd 6fd9 61bf 7647 fb3e fca6 d4be
00000250: 4513 67bf e54e 323e b5af a8be 4c60 1b3e
00000260: 6a37 9d3e 1f5a f53c 9c62 94be 8028 ccbe
00000270: f811 123f 9980 8abe 5928 cf3e eba2 d2be
00000280: 34d6 0c3e 14e7 ce3c 4ed0 abbe d0a4 25bd
00000290: b91f a53e 3a3b 2dbf 8531 10bf cf9b 9f3e
000002a0: 7d3f cb3e 3a7c d33e 5015 b53e ba41 d03d
000002b0: 6ea9 663e acc2 38bd bc15 1c3e 602c f23d
000002c0: bf16 babe 7794 1b3f 08aa 2e3e b82d 413d
000002d0: 36fe 553f ad25 d3be 59fc c23d 1b59 a13e
000002e0: 739a 313f 7efa 84be ae19 e43e 4990 eb3e
000002f0: fd1d d93d 3de7 ca3e 1184 a53e d988 a1be
00000300: 121a 4b3e 0d03 c3be 2728 0dbf 25f9 913e
00000310: a2c0 3dbe 7b22 533f 7a56 923e e3bb 89bd
00000320: 22dd f6be 02c8 143e abb4 e73d a8d1 d83e
00000330: 2781 3c3f f95a c13d c66e 4b3d a8a8 613e
00000340: 20d8 8c3e f00e 81bd 533b 5b3e b77f 8f3e
00000350: 2c9b fabe a737 6dbe 43f1 a13e 8d24 e3bd
00000360: 2f28 323e e694 78be b882 78be 7898 8b3e
00000370: f9a5 d43d 5eab 183e 9ca5 913c f88b 1ebf
0.5326998 0.021395069 -1.0953143 0.03360969 0.76245034 0.90727794 0.4243118 -0.5846107
-0.92464507 -0.37573287 -0.17127274 -0.92949504 -0.20628585 -0.6124372 0.2649249 -0.78913397
-1.066783 -0.4344681 -0.42771876 -0.5118885 0.33440903 1.116405 0.6268029 0.0047993893
0.5004183 0.7079488 0.6036753 0.37052813 0.35258982 0.50835496 0.23668411 -0.070540726
0.7547657 0.10550425 -0.21099176 -0.086974934 -0.12499373 0.020604357 -0.4057196 -0.021927677
-0.35960856 0.7840825 -0.38041046 0.43737122 0.36749384 0.08474674 0.011939847 -0.08191861
-0.41596198 -0.07073485 0.113059856 0.7716955 0.12874062 0.32535884 -0.43364376 0.15950121
0.2937738 -0.72641927 0.28953373 0.038039424 0.12568514 1.0008492 -0.7911612 -0.36463884
0.59087676 1.0220075 0.18913637 0.012494344 0.4083059 -0.35051438 0.2612131 -0.23511021
0.39374414 0.04196735 0.23355535 0.6344221 -0.7232941 -0.06010724 0.07934036 -0.21769011
0.0880059 -0.38281137 -0.2918336 -0.6437542 -0.14621353 0.66335124 0.108849525 -0.3360243
-0.12820393 0.77411896 0.35297108 0.109584995 0.27394977 -0.24762571 -0.16415909 -0.03178324
0.29279795 0.47559378 -0.20087293 0.46037 -0.17745444 -0.10317272 0.39918134 0.48820192
0.3702839 -0.04516268 -0.024173358 0.014202507 -0.48929882 0.12039634 0.5237647 0.91519445
0.060446367 -0.26684526 -0.13644926 -0.014557922 -0.33722025 -0.8119016 -0.31909952 0.3437763
-0.17038107 0.23365818 0.27781257 -0.14987218 0.05764452 0.8270275 0.37706032 -0.7842907
-0.23569094 0.62743413 -0.5366943 -0.24649923 -0.26868394 -0.26051393 -0.42101973 0.049821377
-0.27261972 -0.46252903 0.13984142 -0.45580098 -0.063505284 -0.027594125 0.043095544 0.26341894
-0.06640925 -0.882224 0.49077958 -0.4153365 -0.9026378 0.17412908 -0.32946554 0.15173453
0.3070634 0.0299502 -0.28981483 -0.3987465 0.5705867 -0.27051237 0.4046047 -0.41139922
0.13753587 0.025256671 -0.3355736 -0.04044038 0.32250765 -0.676685 -0.5632556 0.3117356
0.39696875 0.41305715 0.35367823 0.10168786 0.2252557 -0.04510753 0.15242666 0.1182487
-0.3634548 0.60773414 0.1705705 0.04716274 0.8359102 -0.41239682 0.09520788 0.31513295
0.69376296 -0.2597236 0.44550842 0.46008518 0.10601423 0.39629546 0.3232732 -0.3154972
0.19834164 -0.38088265 -0.5513939 0.28510395 -0.18530515 0.8247449 0.285816 -0.0672529
-0.48215586 0.14529422 0.113137566 0.42347455 0.7363457 0.0944118 0.04966619 0.22036994
0.2750864 -0.06301677 0.21409349 0.28027126 -0.48946512 -0.23165761 0.3162938 -0.11090956
0.17398141 -0.2427555 -0.24268615 0.27264762 0.10383219 0.14909121 0.017779164 -0.61932325

sequential/dense_1/Tensordot/MatMul f4 [4, 8]
00000000: 48ce 2040 3cb9 8f3f 52dc 623f 3bc6 923e
00000010: 1ef2 213c e8f0 9e3f 0f97 0a3f c005 7abf
00000020: c375 bfbe 957b 6f3e 314d 013e bd60 ea3e
00000030: 59ff 26bf 8c0a c6be d36b abbd 9f63 b63e
00000040: 4cfa 193d 00fb f4be df62 bcbe e374 21bf
00000050: cf96 8abe ddc9 20be 0ab6 0fbe 134c d6bd
00000060: f8d7 84bf a3db ccbf df0b 1f3f c468 77c0
00000070: 1bf3 8cbf 2338 59be c790 173f 4204 2b3f
2.5125904 1.1228404 0.8861743 0.28666863 0.009884385 1.2417269 0.5413675 -0.97665024
-0.37394533 0.23386987 0.12627102 0.4577693 -0.6523338 -0.38679922 -0.08370175 0.3562288
0.037592217 -0.47847748 -0.36794183 -0.6306898 -0.27068183 -0.15702005 -0.14034286 -0.10463729
-1.0378408 -1.6004528 0.6212749 -3.8657694 -1.101169 -0.2121282 0.5920529 0.6680337

sequential/dense_2/Tensordot/MatMul f4 [1, 4]
00000000: 814a 4bbf 2ba6 b1bf a2d7 e43e e826 b23f
-0.7941056 -1.3878835 0.44695765 1.3918123
