ml/models/v10.tflite (tflite, 8384 bytes, 5 tensors)

sequential/dense/BiasAdd/ReadVariableOp f4 [8]
0	0xbed48809	-0.41510037
1	0x3eaaea40	0.33381844
2	0xbd082390	-0.03323704
3	0xbf4df32c	-0.80449176
4	0xbd221d47	-0.039578702
5	0x3e04f28e	0.12983152
6	0xbe2d8005	-0.16943367
7	0xbe7cc704	-0.24685293

sequential/dense_1/BiasAdd/ReadVariableOp f4 [4]
0	0xbf3860de	-0.7202281
1	0xbeda849b	-0.42679295
2	0xbf1c010a	-0.60939085
3	0xbf158b51	-0.58415705

sequential/dense/Tensordot/MatMul f4 [8, 28]
0	0xbf18f919	-0.5975509
1	0x3eb3f389	0.3514674
2	0xbe2b4071	-0.16723801
3	0x3ea61f9c	0.3244599
4	0x3ea18418	0.31546092
5	0x3ee55040	0.44787788
6	0x3e223a21	0.15842487
7	0xbed9021f	-0.4238443
8	0xbe9c759d	-0.30558482
9	0xbcd42422	-0.025896136
10	0xbe19ff82	-0.15038875
11	0xbf3e66c8	-0.7437558
12	0x3e352aa0	0.17692041
13	0x3dc95b04	0.09831813
14	0x3e1e5a93	0.15464239
15	0x3ed7cf79	0.42150477
16	0x3b6408d7	0.0034795308
17	0x3f407d15	0.7519086
18	0x3e586a17	0.2113422
19	0x3dc3f084	0.09567359
20	0xbcd510f4	-0.02600906
21	0xbed84a76	-0.4224431
22	0x3e801a61	0.25020126
23	0x3edc039e	0.4297151
24	0xbf50cb2b	-0.8156001
25	0xbd3eb7cf	-0.046562012
26	0xbf03288a	-0.5123373
27	0x3f56691a	0.8375412
28	0x3ed70bb3	0.42001113
29	0x3f3c1096	0.7346281
30	0x3e9a45e4	0.30131447
31	0xbd875e0e	-0.066097364
32	0x3ecb6f15	0.39733186
33	0xbf13117e	-0.57448566
34	0x3e1b347d	0.15156741
35	0xbf1ec892	-0.62024796
36	0x3e836eab	0.2567037
37	0x3e26183c	0.16220182
38	0x3e754138	0.2395066
39	0xbec24afa	-0.37947828
40	0xbe22a852	-0.15884522
41	0x3e0832c0	0.1330061
42	0x3eb20108	0.34766412
43	0x3ea07afd	0.31343833
44	0x3e7d5511	0.24739482
45	0x3eec30e5	0.46131054
46	0xbed9456c	-0.42435777
47	0xbe67296c	-0.22574395
48	0x3f1dca16	0.61636484
49	0x3efb77ed	0.49114934
50	0x3ee48480	0.4463234
51	0x3f6a2f49	0.914784
52	0x3d274429	0.040836487
53	0x3e85d0ad	0.2613577
54	0x3b930a59	0.0044873175
55	0x3f2877a2	0.65807545
56	0x3db3e286	0.0878344
57	0xbefe157c	-0.49625766
58	0xbd890a43	-0.066914104
59	0x3f062368	0.52397776
60	0x3e91c953	0.2847391
61	0xbf7f4a6c	-0.99722934
62	0xbe1b7aef	-0.15183614
63	0xbedd0abe	-0.43172258
64	0xbf21052d	-0.6289852
65	0x3f0deadf	0.5543651
66	0xbe4c3aff	-0.1994438
67	0x3e300582	0.17189601
68	0xbe5def73	-0.21673374
69	0x3de9d332	0.114172354
70	0x3e14b0dd	0.14520593
71	0xbf068edf	-0.52561754
72	0x3f0e05a9	0.55477387
73	0xbda1e52e	-0.07905041
74	0x3d532491	0.051548544
75	0xbead3b4f	-0.3383431
76	0x3e5ba0c1	0.21448041
77	0x3e2f7622	0.17134908
78	0x3eefa791	0.4680753
79	0xbda874cd	-0.08225403
80	0x3ecefbfd	0.40426627
81	0x3efbbae5	0.49166027
82	0x3e017eb1	0.12645985
83	0xbedcfe6a	-0.43162853
84	0x3e35846d	0.17726298
85	0x3cd6e0e4	0.026230283
86	0xbf13ae60	-0.5768795
87	0xbec18a33	-0.3780075
88	0x3f0506a3	0.5196325
89	0xbdca1199	-0.09866638
90	0xbea53b1b	-0.32271656
91	0xbf3a14e9	-0.72688156
92	0xbd88c32b	-0.0667785
93	0x3e1efc6c	0.15525979
94	0x3e9b6d95	0.30357042
95	0xbd6f596f	-0.0584349
96	0xbe4da00c	-0.20080584
97	0xbeb56d4d	-0.35434952
98	0xbcd0d434	-0.025491811
99	0xbf14f0a3	-0.5817968
100	0x3cddfe64	0.027098842
101	0xbf3c2895	-0.73499423
102	0x3e4c1f91	0.19933917
103	0xbcdc6763	-0.026904767
104	0xbdaec6d3	-0.085340165
105	0x3f8cbb45	1.099465
106	0xbec583ef	-0.3857722
107	0x3bc5ca22	0.006036059
108	0xbee84710	-0.45366716
109	0x3f4dce82	0.8039323
110	0xbee05404	-0.438141
111	0x3d3a30a8	0.04545656
112	0xbe8bc5f3	-0.2729946
113	0xbe376e72	-0.17913225
114	0xbd6ce898	-0.057839006
115	0x3f0bfeee	0.54685867
116	0x3f5d2788	0.86388445
117	0x3f1ac88e	0.6046227
118	0xbda2f3d1	-0.079566605
119	0xbeeec118	-0.46631694
120	0xbe25b168	-0.16180956
121	0x3e9d4379	0.3071554
122	0x3eb5ac59	0.35483053
123	0xbd449e60	-0.0480026
124	0x3ebf2c68	0.37338567
125	0x3f87516a	1.0571721
126	0xbeb90009	-0.3613284
127	0x3f79fc42	0.9765054
128	0xbf17cfca	-0.59301436
129	0x3e404f03	0.1878014
130	0x3e0453c5	0.1292258
131	0xbdb8bdac	-0.09020552
132	0x3effc817	0.49957344
133	0xbef16c70	-0.47153044
134	0x3e700969	0.2344109
135	0xbe02e104	-0.12781149
136	0xbe15685f	-0.14590596
137	0x3e36079c	0.1777634
138	0xbeb6c92f	-0.35700366
139	0x3d57bc01	0.05266953
140	0x3dfc8932	0.123308554
141	0xbf02c6ba	-0.5108448
142	0xbd2ad61a	-0.04170809
143	0xbe8c8099	-0.27441862
144	0xbdd100de	-0.102052435
145	0xbeb033ad	-0.34414425
146	0xbeb2b961	-0.34907058
147	0xbd9eaf6e	-0.07748304
148	0xbec86c4a	-0.39145118
149	0x3f04d555	0.5188802
150	0xbe817250	-0.25282526
151	0x3b386c6e	0.00281408
152	0xbe34a44d	-0.17640801
153	0x3e1dbb69	0.15403523
154	0x3de85112	0.11343588
155	0xbf98fa52	-1.1951392
156	0x3eaa438e	0.33254665
157	0x3ccc4d47	0.024939192
158	0x3e68ceb7	0.22735105
159	0xbf0ef3f9	-0.5584102
160	0xbf11411f	-0.5673999
161	0x3ebe0f82	0.37121207
162	0x3e87bb4f	0.26510093
163	0xbbf96958	-0.007611435
164	0xbd403ca4	-0.04693283
165	0xbf1a51e7	-0.60281223
166	0xbc6aa1e2	-0.014320822
167	0x3e360b67	0.17777787
168	0xbe8906a9	-0.26762894
169	0x3ef3c1d6	0.47608823
170	0xbdf2c46f	-0.11853873
171	0xbf2b39b4	-0.66884923
172	0xbd4c7a80	-0.049921513
173	0x3fb297ff	1.3952636
174	0xbbb71b54	-0.0055879746
175	0xbf1d7343	-0.61504
176	0x3e63095b	0.22171538
177	0x3e44e91c	0.19229549
178	0xbf1b9b77	-0.60784096
179	0xbd8f734c	-0.07004413
180	0x3dfbce43	0.12295201
181	0xbf0cef52	-0.55052674
182	0xbe0bef38	-0.13665473
183	0x3f227d0b	0.6347205
184	0xbec10b34	-0.3770386
185	0xbec54e2d	-0.38536206
186	0x3da56060	0.08075023
187	0x3ddb3f65	0.10705451
188	0x3e9900c2	0.2988339
189	0xbd37ca3a	-0.044870593
190	0xbe80e455	-0.25174204
191	0xbeece886	-0.4627115
192	0xbc345af5	-0.011008014
193	0xbe3a812d	-0.18213339
194	0x3da8ea07	0.08247762
195	0xbe16aba0	-0.14713907
196	0xbcb3545f	-0.021890817
197	0x3f39c252	0.72562134
198	0x3de80100	0.11328316
199	0x3e034666	0.12819824
200	0xbed31803	-0.41229257
201	0xbf810bc5	-1.0081717
202	0x3f918bc9	1.1370784
203	0xbf232d51	-0.6374102
204	0xbebf9b0f	-0.37422988
205	0x3def0da9	0.11672527
206	0x3e8ec087	0.27881262
207	0x3f02bc21	0.5106831
208	0x3e9dfb42	0.30855757
209	0x3ea36e74	0.31920207
210	0xbcd81b7a	-0.02638029
211	0xbef4c49b	-0.47806248
212	0x3dc6320a	0.09677513
213	0x3f015783	0.5052416
214	0x3d3b9866	0.045799635
215	0x3f55cc81	0.83515173
216	0x3e4bd42c	0.19905156
217	0x3f20b939	0.6278263
218	0xbaae8ec5	-0.0013317695
219	0xbf5ec623	-0.8702108
220	0x3f1b4406	0.6065067
221	0x3d8a6a17	0.06758516
222	0x3e28d9a6	0.16489276
223	0x3f8437ca	1.0329525

sequential/dense_1/Tensordot/MatMul f4 [4, 8]
0	0x3f7db7e4	0.9910872
1	0x400ca1d5	2.1973774
2	0x405f0166	3.4844604
3	0xbf0ed487	-0.5579304
4	0x3f1a3ede	0.6025218
5	0x402f4290	2.7384377
6	0x40303625	2.7533047
7	0xbf443d8a	-0.766564
8	0x3f319ac2	0.69376767
9	0x404c16f5	3.1889012
10	0x4019e8c0	2.404831
11	0xbebdebf9	-0.37094095
12	0x3eb1ed19	0.34751204
13	0x3ffd41ef	1.9785746
14	0x4006ed74	2.108243
15	0xbf00e613	-0.50351065
16	0x3e05b738	0.13058174
17	0x4088c80c	4.27442
18	0x4060ca35	3.5123417
19	0x3e77cd96	0.24199519
20	0xbf67f133	-0.90602416
21	0x40099967	2.149988
22	0x400e95a3	2.227883
23	0x3f89eac4	1.077477
24	0x3f9eccae	1.2406213
25	0x4043de38	3.0604382
26	0x405b3725	3.4252408
27	0xbec6c672	-0.38823277
28	0x3ef0e556	0.4704997
29	0x3fd75f96	1.6826046
30	0x401749d6	2.3638816
31	0xbf68c8e7	-0.9093155

sequential/dense_2/Tensordot/MatMul f4 [1, 4]
0	0xc03c1117	-2.938543
1	0xc06523a6	-3.5803008
2	0xc05ab432	-3.4172482
3	0xc01541ea	-2.332148
