ml/models/v12.tflite (tflite, 8384 bytes, 5 tensors)

sequential/dense/BiasAdd/ReadVariableOp f4 [8]
-0.303252 -0.26091853 -0.07567084 0.55942905 -0.061959133 0.572636 1.1735262 0.6066911
00000000: d943 9bbe 1d97 85be 50f9 9abd be36 0f3f
00000010: dcc8 7dbd 4698 123f 1b36 963f 1c50 1b3f

sequential/dense_1/BiasAdd/ReadVariableOp f4 [4]
0.07276547 -0.42826468 1.0016546 -0.023188349
00000000: 1006 953d 8245 dbbe 3836 803f 7ef5 bdbc

sequential/dense/Tensordot/MatMul f4 [8, 28]
-0.31675056 0.84230816 -0.022017395 -0.5765281 0.048709963 1.2743205 0.17916533 -0.14167169
0.032323543 0.45726937 -0.4394667 -0.015485702 -0.06393626 -0.14345822 -0.20440821 1.3528911
-0.43155137 0.6017647 -0.017176691 0.4916028 0.30087906 -0.74404573 0.7266796 -0.2874659
-0.2854436 0.36906964 -0.19246839 -0.008598212 -0.18146919 -0.21468961 -0.0068543074 0.9348306
0.53935343 0.18996173 -0.44051817 0.24970591 0.05897714 -0.015348176 -0.52606475 0.055505715
0.18802878 0.55741984 -0.2645398 -0.18799531 0.1624374 0.9147184 0.32276732 -0.40881163
0.2287994 -0.68001914 0.4170142 0.2785418 -0.44083598 -0.005262737 0.14303145 -0.13332362
-0.1884033 0.17072137 0.81081426 0.4436421 -0.9782321 0.40518215 0.99596465 0.3338942
-0.12916367 -0.2874687 0.13675947 -0.13868026 -1.0949115 1.0629833 -0.37527934 -0.035815116
-0.8694038 0.47988647 -0.7230867 -0.7551057 0.019390354 -0.3446232 -0.36064932 0.23416194
0.56257796 -0.5414316 1.2394034 -0.5064057 -0.39939004 0.7761192 -0.35451493 -0.33467728
0.90367204 0.51184875 -0.20843038 0.8261701 0.81766945 0.59923506 0.59727967 -0.0779096
-0.14687978 -0.9202116 0.14085324 0.81563807 0.52640116 -0.62717086 0.633546 -0.08011267
-0.20569646 0.089358725 -0.12957972 -0.11234443 0.1675048 0.5756677 0.7259939 -0.11616594
0.16006961 -1.1497363 0.39959124 0.21776927 -0.5113263 -1.24724 0.2501516 -0.096077204
0.40136832 0.06499221 0.5384664 0.61069673 0.14311416 0.70057803 0.15765975 -0.3103447
0.4718352 1.0678312 0.49244907 0.04295937 0.60926884 -0.46193138 -0.42030126 -0.4173867
-0.86166936 -1.3449646 -0.07944598 0.46482906 0.76373136 0.44903558 0.61174786 0.26996446
0.821658 -0.80184084 0.47584087 -0.71102124 0.3134376 -0.25806987 -0.10136582 -0.11219231
-0.19753654 0.45461586 -0.18224941 0.13333556 0.18765618 -0.08046849 0.109315164 -0.13963951
0.40149042 0.61788 -0.38417798 -0.16611551 0.8812808 -0.33737597 0.22471438 0.6453649
0.21484868 0.05679092 -0.21704386 0.5897994 -0.1895997 0.12914985 -0.91595256 0.7399269
-0.17571741 -0.09856018 0.4308975 0.34258628 0.6925422 0.7021433 0.27691406 -0.39919883
-0.3254659 -0.5506226 -0.37346292 0.82383025 -1.0448171 -0.13535663 0.02526706 -0.010891503
0.4597703 0.12915555 -0.85710937 -1.2774473 -0.18633796 -0.42125162 -0.28975192 -0.36388105
0.0066386918 0.2582673 -0.6093804 -0.17560998 -1.1245408 0.7468824 -0.5520995 -0.4786042
-0.7628205 -0.26051897 0.92995447 -0.39591685 -0.11704817 -0.84128815 -0.07605988 -0.3567782
-0.32858625 0.055866558 -0.062698126 -0.33277398 -0.3359882 -0.21219693 -0.17709322 -0.56468934
00000000: 212d a2be 82a1 573f d35d b4bc 5897 13bf
00000010: 1984 473d ef1c a33f 1e77 373e 6212 11be
00000020: b165 043d 361f ea3e c801 e1be beb7 7dbc
00000030: 04f1 82bd b6e6 12be 6350 51be 892b ad3f
00000040: 4df4 dcbe 400d 1a3f 22b6 8cbc 5db3 fb3e
00000050: d20c 9a3e c879 3ebf ad07 3a3f bb2e 93be
00000060: aa25 92be b2f6 bc3e 6f16 45be 84df 0cbc
00000070: 0fd3 39be 98d7 5bbe 199a e0bb 0f51 6f3f
00000080: 1113 0a3f 5485 423e 998b e1be e8b2 7f3e
00000090: 0392 713d ea76 7bbc 2eac 06bf f659 633d
000000a0: 9e8a 403e 11b3 0e3f c371 87be d881 40be
000000b0: fd55 263e fc2a 6a3f c241 a53e c24f d1be
000000c0: 644a 6a3e bc15 2ebf e382 d53e 089d 8e3e
000000d0: 41b5 e1be 0a73 acbb d676 123e fd85 08be
000000e0: cbec 40be 95d1 2e3e 8691 4f3f 0f25 e33e
000000f0: 6b6d 7abf 0974 cf3e 8af7 7e3f 2ef4 aa3e
00000100: 7b43 04be 192f 93be ad0a 0c3e 3302 0ebe
00000110: 0f26 8cbf d60f 883f 9d24 c0be dfb2 12bd
00000120: 3f91 5ebf aeb3 f53e 361c 39bf 9b4e 41bf
00000130: 85d8 9e3c 7472 b0be 07a7 b8be 26c8 6f3e
00000140: 1c05 103f 439b 0abf c5a4 9e3f cea3 01bf
00000150: da7c ccbe bfaf 463f fb82 b5be d25a abbe
00000160: 0d57 673f 8508 033f c66e 55be e27f 533f
00000170: c952 513f 7867 193f 52e7 183f 128f 9fbd
00000180: a767 16be fd92 6bbf d53b 103e a8cd 503f
00000190: 3ac2 063f 458e 20bf 1230 223f 1d12 a4bd
000001a0: 18a2 52be b501 b73d 8cb0 04be d614 e6bd
000001b0: 6186 2b3e f55e 133f bcda 393f 69e8 edbd
000001c0: 4ae9 233e 8f2a 93bf 3997 cc3e e8fe 5e3e
000001d0: 48e6 02bf 8fa5 9fbf df13 803e 20c4 c4bd
000001e0: 2680 cd3e a31a 853d efd8 093f 9f56 1c3f
000001f0: 858c 123e 1559 333f 8f71 213e 80e5 9ebe
00000200: 6294 f13e b1ae 883f 4922 fc3e 2af6 2f3d
00000210: 0bf9 1b3f 4582 ecbe ba31 d7be b6b3 d5be
00000220: 5d96 5cbf cd27 acbf 93b4 a2bd 13fe ed3e
00000230: e683 433f fee7 e53e 829b 1c3f c838 8a3e
00000240: 2e58 523f 7145 4dbf 6aa1 f33e 7d05 36bf
00000250: e57a a03e bc21 84be e298 cfbd 15c5 e5bd
00000260: 0547 4abe 69c3 e83e 979f 3abe 1e89 083e
00000270: f128 403e aacc a4bd a1e0 df3d a9fd 0ebe
00000280: 2790 cd3e 622d 1e3f fab2 c4be 2f1a 2abe
00000290: 9e9b 613f 8bbc acbe 871b 663e a236 253f
000002a0: 4b01 5c3e 999d 683d bf40 5ebe 18fd 163f
000002b0: 6c26 42be dc3f 043e de7b 6abf d96b 3d3f
000002c0: 44ef 33be ebd9 c9bd 999e dc3e 7867 af3e
000002d0: 724a 313f aabf 333f aec7 8d3e ca63 ccbe
000002e0: 77a3 a6be 9af5 0cbf 8836 bfbe 8ae6 523f
000002f0: 91bc 85bf ee9a 0abe defc ce3c 4672 32bc
00000300: 0367 eb3e 5a41 043e 856b 5bbf 6583 a3bf
00000310: 61cf 3ebe 4bae d7be 5d5a 94be 9e4e babe
00000320: 6289 d93b 9d3b 843e 5b00 1cbf 1ad3 33be
00000330: f4f0 8fbf af33 3f3f 6556 0dbf 9c0b f5be
00000340: 3448 43bf be62 85be 7f11 6e3f 9db5 cabe
00000350: f3b6 efbd a95e 57bf 48c5 9bbd a2ab b6be
00000360: 753c a8be 55d4 643d e067 80bd 5a61 aabe
00000370: a506 acbe 274a 59be ed57 35be 7b8f 10bf

sequential/dense_1/Tensordot/MatMul f4 [4, 8]
1.7045901 1.2547745 -1.1034229 -0.72622114 0.37608287 4.3076744 -0.04030731 2.9259942
0.7327743 0.86798626 -1.0187428 -1.8282278 0.96888393 3.5521421 0.016612615 4.036818
-1.7847681 -1.2050451 1.9358094 0.79223806 0.68906254 -3.2061927 1.4373906 -2.8404427
2.482479 0.5039653 -0.6964581 0.59279454 -0.6006255 4.218482 -0.14116012 1.4171132
00000000: 0230 da3f 739c a03f f63c 8dbf a1e9 39bf
00000010: ef8d c03e 78d8 8940 4719 25bd 7d43 3b40
00000020: 1997 3b3f 5934 5e3f 2a66 82bf 5e03 eabf
00000030: c708 783f 4c56 6340 2e17 883c 9d2d 8140
00000040: 4873 e4bf eb3e 9abf 9ac8 f73f 1dd0 4a3f
00000050: 6766 303f 4332 4dc0 6afc b73f d0c9 35c0
00000060: f0e0 1e40 df03 013f 144b 32bf 62c1 173f
00000070: 98c2 19bf cefd 8640 478c 10be f763 b53f

sequential/dense_2/Tensordot/MatMul f4 [1, 4]
-3.4015872 -4.2587013 1.8625149 -2.030669
00000000: 9bb3 59c0 4847 88c0 e366 ee3f 7bf6 01c0
