ml/models/v17.tflite (tflite, 8384 bytes, 5 tensors)

sequential/dense/BiasAdd/ReadVariableOp f4 [8]
-0.3036473 -0.26067322 -0.07538663 0.5591552 -0.06214045 0.5718869 1.1741687 0.6084346
00000000: a977 9bbe f676 85be 4e64 9abd cc24 0f3f
00000010: fc86 7ebd 2e67 123f 294b 963f 5fc2 1b3f

sequential/dense_1/BiasAdd/ReadVariableOp f4 [4]
0.07292982 -0.42839208 1.0021149 -0.023127606
00000000: 3b5c 953d 3556 dbbe 4d45 803f 1b76 bdbc

sequential/dense/Tensordot/MatMul f4 [8, 28]
-0.31739056 0.8433207 -0.023198465 -0.5778479 0.04844197 1.2750145 0.17914023 -0.14215548
0.032027956 0.4565559 -0.43977264 -0.015907628 -0.06430914 -0.14296617 -0.20524439 1.3525938
-0.43274698 0.60109615 -0.01654984 0.49173796 0.30094194 -0.7444627 0.7275876 -0.28808302
-0.28643954 0.36962318 -0.19242917 -0.008696787 -0.18201081 -0.21511488 -0.0077799503 0.93541294
0.54006565 0.19053961 -0.44057724 0.25035036 0.058706217 -0.016039148 -0.5265283 0.055473898
0.18804981 0.55696577 -0.26475918 -0.18831132 0.16174185 0.9147416 0.3234345 -0.40842855
0.22855765 -0.6812441 0.41730815 0.27897498 -0.44088036 -0.005027054 0.14326423 -0.13325387
-0.18850973 0.1706601 0.8118549 0.44334838 -0.97902656 0.4051894 0.9957747 0.33385205
-0.128831 -0.28753853 0.13680042 -0.13840231 -1.0953194 1.0640979 -0.37550434 -0.035555985
-0.86930484 0.47998556 -0.72329855 -0.75543594 0.019424824 -0.34479436 -0.36103413 0.23450759
0.5624205 -0.54212165 1.2395631 -0.50692505 -0.39888608 0.77704245 -0.3538568 -0.3341201
0.90458506 0.5117231 -0.2086 0.8268955 0.8185033 0.60058993 0.597766 -0.078147374
-0.14735547 -0.9205502 0.14167336 0.81704706 0.5277083 -0.62715596 0.63352305 -0.080219015
-0.2058119 0.08942085 -0.1298317 -0.11309189 0.16761155 0.576503 0.72659284 -0.116178736
0.15999548 -1.1499671 0.3993158 0.21732822 -0.5119768 -1.2478251 0.2501378 -0.09615275
0.40102804 0.064329304 0.5381742 0.61116654 0.1434535 0.70037454 0.15751241 -0.31081566
0.471187 1.0673273 0.4927301 0.043128826 0.60917014 -0.46202925 -0.42029342 -0.41696885
-0.86202544 -1.345699 -0.079774074 0.4648567 0.7637866 0.449329 0.61076784 0.26873666
0.8225607 -0.8012487 0.47680566 -0.712771 0.31296614 -0.25915438 -0.10228869 -0.1129999
-0.19904469 0.45473626 -0.18346089 0.1322206 0.18683557 -0.081640035 0.10889568 -0.14028968
0.40229368 0.61952645 -0.3839048 -0.16576542 0.8812852 -0.33667785 0.22640048 0.6462684
0.21489188 0.05656595 -0.21639696 0.5903327 -0.1895959 0.12970476 -0.91620386 0.7397315
-0.1755256 -0.09830509 0.43066514 0.34172243 0.6927803 0.7025281 0.27665785 -0.39917675
-0.3249429 -0.5504091 -0.37437895 0.8241256 -1.0449282 -0.13505922 0.025026364 -0.010652619
0.46062857 0.12986332 -0.85727227 -1.2777147 -0.1864071 -0.42112365 -0.29020754 -0.3651677
0.0060407375 0.25822437 -0.6100659 -0.17536582 -1.125368 0.74719775 -0.5529308 -0.47766852
-0.7609491 -0.2601073 0.93194467 -0.39661792 -0.116570584 -0.84246856 -0.07517839 -0.3548389
-0.32912245 0.054833423 -0.06334888 -0.33352643 -0.33618283 -0.213236 -0.17866221 -0.565362
00000000: 0481 a2be dee3 573f b50a bebc d7ed 13bf
00000010: 166b 463d ad33 a33f 8970 373e 3591 11be
00000020: bf2f 033d b2c1 e93e e129 e1be b750 82bc
00000030: 83b4 83bd b965 12be 962b 52be cb21 ad3f
00000040: 0391 ddbe 70e1 193f 8893 87bc 14c5 fb3e
00000050: 1015 9a3e 1c95 3ebf 2e43 3a3f 9e7f 93be
00000060: 34a8 92be 403f bd3e 270c 45be f87c 0ebc
00000070: 0b61 3abe 1347 5cbe f4ee febb 3977 6f3f
00000080: be41 0a3f d11c 433e 5793 e1be ec2d 803e
00000090: ee75 703d 8864 83bc 8fca 06bf 9938 633d
000000a0: 2190 403e 4f95 0e3f 848e 87be afd4 40be
000000b0: a89f 253e 812c 6a3f 3599 a53e 8c1d d1be
000000c0: 040b 6a3e 0366 2ebf 6aa9 d53e cfd5 8e3e
000000d0: 12bb e1be fcb9 a4bb dcb3 123e b473 08be
000000e0: b208 41be 85c1 2e3e b9d5 4f3f 8ffe e23e
000000f0: 7ca1 7abf fc74 cf3e 17eb 7e3f a8ee aa3e
00000100: 46ec 03be 4038 93be 6915 0c3e 56b9 0dbe
00000110: 6d33 8cbf 5c34 883f 1b42 c0be 27a3 11bd
00000120: c38a 5ebf abc0 f53e 182a 39bf 4064 41bf
00000130: cf20 9f3c e388 b0be 77d9 b8be c222 703e
00000140: cafa 0f3f 7cc8 0abf 01aa 9e3f d7c5 01bf
00000150: cc3a ccbe 41ec 463f b82c b5be ca11 abbe
00000160: e392 673f 4900 033f 3d9b 55be 6caf 533f
00000170: 6f89 513f 43c0 193f 3107 193f bb0b a0bd
00000180: 5ae4 16be 2ea9 6bbf d212 113e ff29 513f
00000190: e417 073f 4b8d 20bf 912e 223f de49 a4bd
000001a0: 5bc0 52be 4722 b73d 9af2 04be b99c e7bd
000001b0: 5da2 2b3e b395 133f fd01 3a3f 1eef edbd
000001c0: dbd5 233e 1f32 93bf 1f73 cc3e 4a8b 5e3e
000001d0: e910 03bf bcb8 9fbf 1012 803e bceb c4bd
000001e0: 8c53 cd3e 15bf 833d c9c5 093f 6975 1c3f
000001f0: 79e5 123e bf4b 333f ef4a 213e 3b23 9fbe
00000200: 6c3f f13e 2e9e 883f 1f47 fc3e daa7 303d
00000210: 93f2 1b3f 198f ecbe b330 d7be f17c d5be
00000220: b3ad 5cbf dd3f acbf 9760 a3bd b301 ee3e
00000230: 8587 433f 730e e63e 485b 1c3f da97 893e
00000240: 5793 523f a31e 4dbf df1f f43e 2978 36bf
00000250: 193d a03e e2af 84be bc7c d1bd 7e6c e7bd
00000260: 5fd2 4bbe 31d3 e83e 2cdd 3bbe d664 073e
00000270: d351 3f3e e432 a7bd b304 df3d 19a8 0fbe
00000280: 70f9 cd3e 4999 1e3f 2c8f c4be 69be 29be
00000290: e89b 613f 0a61 acbe 87d5 673e d971 253f
000002a0: 9e0c 5c3e b3b1 673d 2a97 5dbe 0b20 173f
000002b0: 6d25 42be 53d1 043e 568c 6abf 0b5f 3d3f
000002c0: fcbc 33be 2e54 c9bd 2480 dc3e 3ef6 ae3e
000002d0: 0d5a 313f e2d8 333f 19a6 8d3e e560 ccbe
000002e0: ea5e a6be 9ce7 0cbf 99ae bfbe e5f9 523f
000002f0: 35c0 85bf f74c 0abe 1704 cd3c 5388 2ebc
00000300: 82d7 eb3e e4fa 043e 3276 5bbf 288c a3bf
00000310: 81e1 3ebe 859d d7be 1596 94be 43f7 babe
00000320: 61f1 c53b fc35 843e 472d 1cbf 1993 33be
00000330: 0f0c 90bf 5a48 3f3f df8c 0dbf f890 f4be
00000340: 8fcd 42bf c92c 85be ed93 6e3f 8111 cbbe
00000350: 8fbc eebd 05ac 57bf 21f7 99bd 72ad b5be
00000360: bd82 a8be 0399 603d 0fbd 81bd fac3 aabe
00000370: 2820 acbe 8a5a 5abe 3af3 36be 90bb 10bf

sequential/dense_1/Tensordot/MatMul f4 [4, 8]
1.7054719 1.2558416 -1.1037437 -0.72649163 0.37690997 4.307925 -0.039580498 2.9268355
0.7329544 0.8684776 -1.0193682 -1.8315102 0.97062886 3.5522728 0.017158147 4.0373955
-1.7852508 -1.2052948 1.9375519 0.79297745 0.68883955 -3.2063308 1.4387952 -2.8403316
2.482964 0.5041146 -0.6968406 0.5932471 -0.60189676 4.2186384 -0.14151259 1.4171044
00000000: e74c da3f 6bbf a03f 7947 8dbf 5bfb 39bf
00000010: 58fa c03e 86da 8940 291f 22bd 4651 3b40
00000020: e6a2 3b3f 8c54 5e3f a87a 82bf ed6e eabf
00000030: 227b 783f 7058 6340 3e8f 8c3c 5832 8140
00000040: 1983 e4bf 1a47 9abf b301 f83f 9200 4b3f
00000050: ca57 303f 8634 4dc0 712a b83f fec7 35c0
00000060: e2e8 1e40 a80d 013f 2564 32bf 0bdf 173f
00000070: e815 1abf 16ff 8640 ade8 10be ad63 b53f

sequential/dense_2/Tensordot/MatMul f4 [1, 4]
-3.4036722 -4.261481 1.8663328 -2.03232
00000000: c4d5 59c0 0d5e 88c0 fee3 ee3f 8811 02c0
