ml/models/v19.tflite (tflite, 3128 bytes, 5 tensors)

sequential_2/dense_7/BiasAdd/ReadVariableOp f4 [4]
-0.031855177 -0.029812977 0.037529115 0.038717233
00000000: 937a 02bd 583a f4bc 21b8 193d f695 1e3d

sequential_2/dense_6/BiasAdd/ReadVariableOp f4 [8]
-0.038581472 0.035920594 -0.026639393 0.038940284 0.036966488 -0.03422823 0.032904048 -0.03362128
00000000: 9b07 1ebd 7921 133d db3a dabc d97f 1f3d
00000010: 2c6a 173d e732 0cbd 65c6 063d 78b6 09bd

sequential_2/dense_6/MatMul f4 [8, 28]
0.18369155 0.31555504 -0.10962215 -0.022039771 -0.10346426 0.0066917553 -0.286021 0.31591877
0.23295374 0.17837566 -0.08954444 0.17965342 0.20463417 0.09793833 -0.21120393 -0.22830825
-0.24864614 -0.13610044 0.0057916446 -0.29156864 0.3863956 -0.15375262 0.33848846 -0.041932955
0.31028202 -0.07828808 -0.12778679 -0.034318797 -0.3967733 -0.3818967 0.3207651 -0.18045641
-0.15030545 -0.23159702 -0.42397094 0.35682553 -0.10956583 -0.11250251 -0.13826446 0.13751158
-0.0015356392 -0.103478245 0.42258367 0.10682073 -0.2846918 0.13366953 0.16326316 0.14665288
-0.35132298 0.33638805 0.07470257 -0.20079951 -0.17820957 -0.23249593 -0.4324109 0.114723705
-0.058483288 0.2323345 0.39492267 -0.2422086 -0.10171141 -0.17593528 0.29065314 -0.074765824
-0.37012073 0.22520195 -0.2095436 0.30732834 -0.0419888 -0.09049628 -0.16376968 0.39386195
-0.000798013 -0.17847496 0.32055488 0.34872594 -0.0995953 0.28646457 -0.26305 -0.27489966
0.08444906 0.22208172 -0.054831587 -0.2613091 -0.24266791 -0.36969924 0.12705076 0.28325883
0.052062973 -0.036088295 0.1380926 -0.226505 0.016198669 -0.03529834 0.015872661 -0.43017712
-0.18936336 0.19554093 -0.26757714 0.078872345 0.08486892 0.003732657 -0.34621298 0.17920409
-0.11964451 -0.18329932 0.1263975 0.21287191 0.3932941 0.30095765 -0.17526484 -0.2559119
0.15127859 -0.24313287 0.048850186 0.07915543 0.10217924 0.0401303 -0.33987918 -0.18821736
0.23287217 0.22115186 -0.33240214 0.38467482 0.36024472 -0.10485559 -0.42646253 -0.21089
0.16185232 -0.13502233 0.013551752 0.20927922 0.23278095 0.029851979 0.05435446 -0.21244757
0.34758353 0.26864964 0.14209884 -0.38841087 0.30982438 -0.18069728 -0.09895784 -0.22070299
-0.3858359 0.31280103 -0.24514933 -0.15239412 -0.33925444 -0.08619814 -0.3956619 0.33742207
0.02195529 0.07268615 0.20634794 -0.27217135 -0.06258672 -0.3294527 0.18993306 0.26532328
-0.031534307 -0.07112766 -0.228766 -0.07726528 0.029504342 0.3770242 -0.18222705 0.049880523
0.39546603 -0.21355431 -0.3162003 -0.042169448 0.394367 -0.337265 0.022540782 0.11113847
0.2717047 0.06737251 0.036731426 0.11709785 0.38122943 -0.23057091 -0.06820928 -0.059506785
-0.17206937 -0.23865992 0.0191974 -0.19287446 -0.0635379 -0.40288502 -0.06346169 -0.28664258
0.3718817 0.08449185 0.3460699 0.14814101 0.053569674 0.21467511 0.06128253 0.145525
0.23423097 0.37645587 -0.2767751 -0.03777762 0.25279063 -0.023504166 0.06681073 -0.13416803
0.1643012 -0.14878874 -0.3132061 0.09656327 0.14525418 0.03564562 -0.2463741 0.04625669
0.2757385 -0.17929232 -0.31564274 -0.19114336 -0.037279017 0.14898327 -0.34514254 0.10238407
00000000: a319 3c3e 6e90 a13e 9481 e0bd c08c b4bc
00000010: 12e5 d3bd 8346 db3b 5871 92be 1bc0 a13e
00000020: 6d8b 6e3e 1ca8 363e 1363 b7bd 11f7 373e
00000030: 9f8b 513e e493 c83d d845 58be a3c9 69be
00000040: 189d 7ebe ea5d 0bbe d6c7 bd3b 7c48 95be
00000050: a5d5 c53e 5471 1dbe 5c4e ad3e e4c1 2bbd
00000060: 49dd 9e3e 8055 a0bd 8ada 02be de91 0cbd
00000070: df25 cbbe f787 c3be 533b a43e 91c9 38be
00000080: ace9 19be c527 6dbe b812 d9be d6b1 b63e
00000090: 0d64 e0bd b767 e6bd 3395 0dbe d6cf 0c3e
000000a0: 8047 c9ba 67ec d3bd e35c d83e d4c4 da3d
000000b0: 20c3 91be aae0 083e 752e 273e 2c2c 163e
000000c0: 9be0 b3be 0e3b ac3e a9fd 983d 639e 4dbe
000000d0: 927c 36be 6a13 6ebe f664 ddbe 43f4 ea3d
000000e0: 2c8c 6fbd 18e9 6d3e 4e33 ca3e 8805 78be
000000f0: 124e d0bd 6128 34be 7dd0 943e d31e 99bd
00000100: 7780 bdbe 579b 663e 9992 56be 245a 9d3e
00000110: 73fc 2bbd 1d56 b9bd 3db3 27be 46a8 c93e
00000120: bf31 51ba 24c2 36be c51f a43e 358c b23e
00000130: 9ff8 cbbd 7cab 923e 7dae 86be a6bf 8cbe
00000140: a1f3 ac3d 6469 633e 1697 60bd 4eca 85be
00000150: f07d 78be 3849 bdbe 9819 023e 4d07 913e
00000160: fc3f 553d 52d1 13bd 2668 0d3e edf0 67be
00000170: 12b3 843c fe94 10bd 6207 823c 2d40 dcbe
00000180: 78e8 41be e23b 483e dfff 88be d387 a13d
00000190: c2cf ad3d 989f 743b d442 b1be 4781 373e
000001a0: 2e08 f5bd d1b2 3bbe 596e 013e 18fb 593e
000001b0: d85d c93e 1f17 9a3e a078 33be e206 83be
000001c0: c6e8 1a3e d3f7 78be 2217 483d 3e1c a23d
000001d0: 5943 d13d ab5f 243d a504 aebe 0dbc 40be
000001e0: 0b76 6e3e a275 623e 9d30 aabe 19f4 c43e
000001f0: ff71 b83e 87be d6bd 4c59 dabe 8cf3 57be
00000200: 9dbc 253e 4b43 0abe 2b08 5e3c 4b4d 563e
00000210: 215e 6e3e 238c f43c c8a2 5e3d db8b 59be
00000220: 78f6 b13e 728c 893e 5c82 113e cadd c6be
00000230: 4da1 9e3e b508 39be 68aa cabd f7ff 61be
00000240: 488c c5be 7527 a03e 6d08 7bbe 340d 1cbe
00000250: c2b2 adbe a788 b0bd 3294 cabe 96c2 ac3e
00000260: 95db b33c 7adc 943d e04c 533e 0b5a 8bbe
00000270: 772d 80bd 06ae a8be d07d 423e 74d8 873e
00000280: 1e2a 01bd 61ab 91bd a241 6abe 423d 9ebd
00000290: 17b3 f13c 5109 c13e ba99 3abe 854f 4c3d
000002a0: 867a ca3e fbad 5abe 01e5 a1be dfb9 2cbd
000002b0: 79ea c93e 00ae acbe 72a7 b83c 919c e33d
000002c0: e11c 8b3e 99fa 893d b173 163d ffd0 ef3d
000002d0: 8130 c33e c81a 6cbe 4fb1 8bbd 63bd 73bd
000002e0: f432 30be 4463 74be de43 9d3c e280 45be
000002f0: 2920 82bd f246 cebe 34f8 81bd d1c2 92be
00000300: 4767 be3e 100a ad3d 1330 b13e 47b2 173e
00000310: e06b 5b3d cbd3 5b3e 6403 7b3d 8104 153e
00000320: 3eda 6f3e d3be c03e 77b5 8dbe b5bc 1abd
00000330: c66d 813e cf8b c0bc 10d4 883d 5863 09be
00000340: 933e 283e 135c 18be 8d5c a0be f7c2 c53d
00000350: 83bd 143e 2401 123d 7e49 7cbe a877 3d3d
00000360: 992d 8d3e 6898 37be ed9b a1be 16bb 43be
00000370: e2b1 18bd 128f 183e 86b6 b0be bdae d13d

sequential_2/dense_7/MatMul f4 [4, 8]
-0.23990484 -0.17456947 0.5951652 -0.7192496 0.48130924 0.52882594 -0.35094225 0.6130284
-0.29029906 -0.4540296 -0.1258918 -0.4010777 -0.544081 0.5821366 -0.730028 0.47219452
0.37268385 0.70804024 0.5888288 0.0027892338 -0.4558429 -0.5845564 0.19964448 -0.524143
-0.5441083 0.65763813 -0.2324441 0.59172654 0.63949406 -0.23557757 0.35232583 -0.28583458
00000000: 9da9 75be 57c2 32be bf5c 183f be20 38bf
00000010: 2a6e f63e 2361 073f b4ae b3be 6eef 1c3f
00000020: 14a2 94be 9176 e8be c8e9 00be 0e5a cdbe
00000030: e448 0bbf e706 153f 1de3 3abf 7bc3 f13e
00000040: 6bd0 be3e 2042 353f 7cbd 163f 94cb 363b
00000050: 3e64 e9be 7da5 15bf 9a6f 4c3e 3c2e 06bf
00000060: ae4a 0bbf f95a 283f d305 6ebe 647b 173f
00000070: e2b5 233f 3f3b 71be 0d64 b43e e958 92be

sequential_2/dense_8/MatMul f4 [1, 4]
0.12453061 0.604163 -0.20348042 -0.32244357
00000000: e809 ff3d 6daa 1a3f 2c5d 50be 5317 a5be
