ml/models/v22.tflite (tflite, 3284 bytes, 5 tensors)

sequential_14/dense_43/BiasAdd/ReadVariableOp f4 [4]
000000 4d 9d d6 bf 72 ee 95 bf b5 e2 b1 3f 1c 53 a2 bf
       -1.6766754 -1.1713393 1.389731 -1.2681613

sequential_14/dense_42/BiasAdd/ReadVariableOp f4 [8]
000000 ff 17 d8 be 6a be 22 3f 43 5d 93 3e 7e 1e 92 3f
       -0.42205808 0.635718 0.2878209 1.1415555
000010 22 25 2d 3e 72 e3 0e 3f 3d b3 6e 3f 3c 83 f5 be
       0.16908696 0.55815804 0.93242246 -0.47951686

sequential_14/dense_42/MatMul f4 [8, 28]
000000 43 4e 28 3f 73 f9 1d bf 38 9e 70 be ef 58 16 3f
       0.6574442 -0.61708754 -0.23497856 0.5872945
000010 c4 a9 b8 3d 06 24 92 bf 81 9b 86 3f e6 d1 41 bf
       0.09016755 -1.1417243 1.0516206 -0.75710905
000020 02 0b 21 be 8c 02 76 be 2e 29 8a 3d 21 69 f3 3e
       -0.15726855 -0.24024409 0.06746136 0.47541144
000030 68 8d 28 be 92 0b 0e bd 1b bd 37 bf 79 67 5a bf
       -0.16460192 -0.034679003 -0.7177293 -0.85314137
000040 6a fe c2 3e 75 46 cb 3e 28 3c 02 3f c1 11 8c bc
       0.38084728 0.39702192 0.5087304 -0.01709831
000050 bf 4b b5 3e 69 e4 b8 bb 3e 77 55 bf 7f 12 ed 3e
       0.35409352 -0.005642463 -0.83385074 0.46303174
000060 e5 7e a5 3e 53 e8 57 bf a0 85 53 bf 80 9f 78 3f
       0.32323375 -0.84338874 -0.8262577 0.9711838
000070 b4 32 c4 3e 09 64 b8 bc e8 36 4b be c6 cf 67 bf
       0.38319933 -0.022508638 -0.19845164 -0.9055141
000080 2b 98 4e bf 0e 06 5f 3f 53 55 43 bf 8d 56 1d 3e
       -0.8070094 0.87118614 -0.7630207 0.15365048
000090 66 a1 ec 3d e1 54 b8 3d 78 a5 64 bf 82 48 f7 be
       0.11554222 0.09000564 -0.89314985 -0.48297507
0000a0 58 a6 d0 be 54 94 b3 be 8a 03 8c bd b6 44 20 bf
       -0.4075191 -0.35074103 -0.068366125 -0.62604845
0000b0 1f c0 e1 bd 19 4a 3e bf 1d bd b0 be af 3f 12 bf
       -0.11022972 -0.74331814 -0.34519282 -0.57128423
0000c0 86 34 33 bf 71 40 18 3e 0c 01 09 bf 61 65 3e be
       -0.7000202 0.14868332 -0.5351722 -0.1859336
0000d0 f5 14 8a be a2 88 f7 bc 9f 4a 11 3f ee 21 21 bf
       -0.26969114 -0.030216519 0.5675449 -0.629424
0000e0 de e6 0e 3f f5 b7 d8 3e a5 9f a1 be 66 39 1e 3f
       0.55821025 0.42327848 -0.31567112 0.61806333
0000f0 2a 3b 0d 3f 8f ea 02 3f ec f8 58 bf cd 76 8e be
       0.551684 0.5113916 -0.84754825 -0.27825013
000100 f4 f2 0b 3e 73 78 e7 bd f3 ed ea 3e 80 8d 82 be
       0.13666898 -0.11302271 0.45884666 -0.2549858
000110 a2 f1 de bd f1 37 a6 3e b0 e5 a9 3d ce 44 2f 3d
       -0.108859316 0.32464555 0.082957625 0.042790227
000120 a8 7e c8 be 07 05 2d bf 08 0a 17 be dc c1 51 3e
       -0.3915913 -0.67585796 -0.1474992 0.20484108
000130 22 71 5f bf 0a e8 a8 3d 15 b6 50 be 7f 7a b3 bd
       -0.87282 0.08247383 -0.20381959 -0.08763599
000140 19 d5 49 bf 76 de ad 3d 33 d4 4d 3f 28 09 99 be
       -0.78840786 0.08489697 0.80401915 -0.29889798
000150 78 8f a4 3b c7 91 e7 3e b4 16 5f 3f fc 02 83 bd
       0.0050219856 0.45228407 0.8714402 -0.063970536
000160 c1 5f 82 3f 22 ac e8 be 95 b7 64 3f 69 87 80 be
       1.0185472 -0.45443827 0.89342624 -0.2510331
000170 b6 be 81 3e d7 0c c1 3e 1e 6c 4e bf 62 84 a6 bd
       0.25340813 0.3770511 -0.80633724 -0.08130719
000180 2d a2 d5 bd 61 25 75 3f 64 1a 23 bf de 17 89 3e
       -0.10431323 0.9576016 -0.63712144 0.26776022
000190 a5 7e 6d 3e fc e1 55 bf 91 9e 4f bf 2d 90 5b bf
       0.23192842 -0.8354795 -0.8110133 -0.8576687
0001a0 0d 33 b8 3e 5f 92 6c bd 3c 78 99 be 97 39 89 be
       0.3597645 -0.057756778 -0.29974544 -0.2680175
0001b0 e7 51 4b 3f d2 71 70 3f 7e a3 d6 3e 4b b5 4b 3e
       0.7942185 0.93923676 0.4192161 0.19893377
0001c0 48 27 02 3e f2 58 19 bd 0b 09 5c be 6c 3e 76 be
       0.12710297 -0.03743834 -0.21487825 -0.2404725
0001d0 ab 4e 7a 3f 81 06 05 3f 0d 41 b5 be 86 9d b8 be
       0.9777629 0.5196305 -0.35401192 -0.3605768
0001e0 f8 41 90 3e 4a 95 c1 be fe 28 0b 3f 07 df c0 3a
       0.2817533 -0.3780921 0.54359424 0.0014714905
0001f0 dc f9 e8 be af 73 87 3c f1 2a 7b be 95 8f cb bd
       -0.45503128 0.016534654 -0.245281 -0.099394955
000200 ee b4 d9 3d ce 30 33 3e ec ca 5c 3d a5 e9 b9 3e
       0.10630213 0.17499086 0.05390446 0.3631107
000210 fc 51 47 bf 15 52 3d bf f9 2c 31 bd 8f 0a 38 3f
       -0.77859473 -0.7395337 -0.04325578 0.7189111
000220 3d 81 16 bf c0 5f bc be 7c 96 fd bd c3 1a 6e be
       -0.5879095 -0.367918 -0.12382218 -0.23252396
000230 c2 b9 98 bd ef ab ad 3f 99 32 33 3f 01 e1 f7 3d
       -0.074573055 1.3568095 0.6999908 0.12103463
000240 c8 9d 84 bd 1f f4 31 bf 80 7d 05 3f 5a 29 49 bf
       -0.06475407 -0.69513124 0.5214462 -0.7857872
000250 bc 79 c8 bd 7f 82 a3 bd 05 c6 6f bf b7 5f b1 be
       -0.09788844 -0.079838745 -0.9366153 -0.34643337
000260 d6 72 81 3c 1b de 78 3f ef c1 0d 3f 86 8f 05 3f
       0.015801828 0.97213906 0.55374044 0.52172124
000270 ff 6b 63 3d 1b d6 f8 bd 51 cc d9 3e d1 65 cc bd
       0.055522915 -0.121502124 0.42538694 -0.099803574
000280 b2 dc ba 3e ec 55 33 3e 9c 3c 62 3e 51 a0 d0 3e
       0.36496502 0.17513245 0.22093433 0.40747312
000290 2c ba 18 3f e1 fd 01 3f 6d 3e d9 3d 3d 15 bb 3e
       0.59659076 0.50778013 0.1060761 0.3653964
0002a0 1c 03 b5 be a2 82 f4 3e 3c e0 d0 3d d0 fe 73 be
       -0.35353935 0.47755915 0.10199019 -0.23827672
0002b0 09 0b ce 3e 99 6e cb 3f 15 ed b8 be 85 ae 90 3f
       0.40242794 1.5893127 -0.3611838 1.1303259
0002c0 94 78 01 3f 5e be 0d 3f 32 2d 3a 3e 63 9b 2d 3d
       0.5057461 0.553686 0.18181303 0.042384516
0002d0 6c ed 1c 3f 94 cf f1 3e 7a da 15 3f a8 26 b2 bd
       0.6129978 0.47228682 0.58536494 -0.08698779
0002e0 e4 e0 94 3e fa bb d7 be b8 76 c0 3d b0 bc 8d 3e
       0.29077828 -0.42135602 0.09397644 0.2768302
0002f0 a6 16 29 3f dd ee a0 be d0 e3 e2 be 94 cd b5 bf
       0.66050184 -0.31432238 -0.44314432 -1.4203362
000300 4c e2 17 bf f1 5d 09 3e 1a 38 1d 3e 8b d1 c1 be
       -0.59329677 0.13414742 0.15353432 -0.3785518
000310 9d a9 32 bf e5 fd 73 3f 69 cb ee be ee 26 b7 be
       -0.6979006 0.9530929 -0.46639565 -0.35771888
000320 5e 67 01 3e 52 5e 9c 3e d2 8f 18 3f 6b 85 73 bd
       0.12637088 0.3054071 0.5959445 -0.05945341
000330 ce 27 95 be 95 44 60 3e df c0 bc 3e d1 9d 82 bd
       -0.2913193 0.21901162 0.368659 -0.06377757
000340 38 d3 9d bd c4 16 17 be e8 b4 6b be 42 ed f4 bd
       -0.077063024 -0.14754778 -0.23018229 -0.11959316
000350 e2 36 bb 3e 47 0b b8 3e 62 24 b6 bd 29 90 51 3f
       0.3656531 0.35946104 -0.08893658 0.81860596
000360 76 59 ca 3e 06 51 79 be b0 2a 57 3c 76 e2 82 3e
       0.39521378 -0.24347314 0.013132736 0.255634
000370 25 e0 84 be 45 ed 16 be 00 7e fe be 65 af 19 3f
       -0.2595226 -0.14738949 -0.49705505 0.60033256

sequential_14/dense_43/MatMul f4 [4, 8]
000000 4a 7d b3 3f 0d 93 76 40 25 0f a8 40 35 fb 93 40
       1.402261 3.8527253 5.2518487 4.624415
000010 8c ea 92 3f bf 13 91 40 a2 73 1a bf 3b 4f 7d 40
       1.1477828 4.5336604 -0.6033269 3.9579608
000020 0b 01 e6 3f 6a 34 86 40 d1 93 91 40 15 08 8c 40
       1.7969068 4.193898 4.549294 4.3759866
000030 3c cd b0 3f a7 f9 91 40 52 5e 57 bf f7 3a 8d 40
       1.3812633 4.561725 -0.84128296 4.413448
000040 2c 0b d5 bf ea 70 89 c0 5e 7a 95 c0 c3 28 8f c0
       -1.6644034 -4.2950335 -4.6711874 -4.473726
000050 05 a7 98 bf dd 20 8f c0 d5 53 3b 3f 0f d5 87 c0
       -1.192597 -4.4727616 0.7317479 -4.244758
000060 d9 5c d7 3f 6e d1 7a 40 e8 85 96 40 db 9e 9c 40
       1.682521 3.9190326 4.703846 4.8943915
000070 14 fc 9a 3f 8f e0 6c 40 48 d4 44 bf 08 e0 8f 40
       1.2108178 3.701206 -0.76886415 4.4960976

sequential_14/dense_44/MatMul f4 [1, 4]
000000 20 fa f4 bf 37 b7 2b c0 5b 85 9f 40 b0 ea 58 c0
       -1.9138832 -2.6830575 4.9850287 -3.3893242
