ml/models/v23.tflite (tflite, 3284 bytes, 5 tensors)

sequential_16/dense_49/BiasAdd/ReadVariableOp f4 [4]
000000 aa ec 00 3f 74 7d 8a bf 5a cb 64 bf 07 ae 1e bf
       0.5036112 -1.0819535 -0.8937279 -0.61984295

sequential_16/dense_48/BiasAdd/ReadVariableOp f4 [8]
000000 50 19 3d 3f 4c 5d e9 be 8e 5d c7 3d 8d 5f ae 3e
       0.7386675 -0.45578992 0.09734641 0.34057274
000010 6a fe 49 3f 1d 0f 56 bf e4 2f b9 be e4 a0 eb 3e
       0.7890383 -0.8361681 -0.3616935 0.46021187

sequential_16/dense_48/MatMul f4 [8, 28]
000000 56 d0 eb 3d 20 80 1f be 01 ae 42 bf 6f 88 41 bf
       0.11514346 -0.1557622 -0.7604676 -0.75598806
000010 96 f0 48 3f 4b 3a cd be 79 dd 87 3e ca 3b 0d be
       0.78492105 -0.40083537 0.26536158 -0.13792339
000020 68 8c 24 bf 11 3b 3c bd 54 4c 70 bf d3 06 0f 3f
       -0.6427674 -0.045954768 -0.9386647 0.5586979
000030 62 5f f1 bd 4a 3c bc 3e a7 b1 7a 3c d2 73 39 bf
       -0.11785771 0.36764747 0.015301145 -0.7244235
000040 50 7e c5 be 6d 8b 73 bf 77 65 ce 3e de c7 e6 be
       -0.3857293 -0.9513462 0.40311787 -0.45074362
000050 04 d5 73 be 6c d1 77 3f f6 df 0a 3f b6 70 8c be
       -0.23811728 0.9680393 0.5424799 -0.27429742
000060 ea 71 70 be 8d bd 09 be 0d 0d b7 be 8f b7 30 3d
       -0.23480955 -0.13451214 -0.35752144 0.043143805
000070 0e f5 80 3f dd c6 16 3f b8 0e 92 bd 43 d0 68 3e
       1.0074785 0.5889719 -0.07131714 0.22735696
000080 b3 55 b3 be 9d a5 3b bd 2b 2e 87 bd 08 59 b7 3e
       -0.3502632 -0.045812238 -0.06600603 0.35810113
000090 07 c9 25 3c d1 94 77 be 2e 4b 1a be f1 69 04 bf
       0.010118729 -0.24177863 -0.15067741 -0.51724154
0000a0 6e 94 51 3f 9c 20 5b 3e 81 44 2b 3f 00 d8 2f 3f
       0.8186711 0.21399158 0.66901404 0.68688965
0000b0 8f ad ef 3d 45 4e 17 be 04 8d d3 3e ce 67 0e be
       0.117030255 -0.14775951 0.41318524 -0.13906786
0000c0 dd 53 f6 be 56 e2 e7 3e c8 1c a1 bd 24 15 02 bf
       -0.48110858 0.45289868 -0.07866818 -0.5081351
0000d0 ae 94 20 3f d7 f8 43 3f b7 99 ec be 2c 76 19 bf
       0.6272687 0.76551574 -0.46211025 -0.5994594
0000e0 d1 db 91 be f9 38 06 3f db c9 38 3f a5 20 67 be
       -0.2848802 0.52430683 0.72183007 -0.22571047
0000f0 c2 01 c1 3e 27 3d 41 be 84 7d dc be e9 7d 87 3e
       0.37696654 -0.18870984 -0.4306451 0.2646325
000100 e3 36 f7 3d 45 91 11 3e 2c f5 06 3f 6b d3 38 3f
       0.12071016 0.14215572 0.5271785 0.721976
000110 ad 9d e1 3e 02 59 f7 3e 3b 22 34 bd da 3f 78 bd
       0.4406561 0.48310095 -0.043977957 -0.06060777
000120 b3 f0 2d bd 86 d8 ae bf e8 40 1f 3f 18 9f de 3e
       -0.042465877 -1.3659828 0.62208414 0.43480754
000130 03 92 80 bd ab 00 6b be 1c db 84 ba 68 fb 11 3f
       -0.062778495 -0.22949474 -0.00101361 0.5702424
000140 3b cf b0 bf 0d a3 00 bf 0f 5a 5e be 00 ae ca 3d
       -1.3813242 -0.50248796 -0.21714042 0.09896469
000150 34 0f cc 3c fa 9e 18 bf 32 49 c9 3e 0a 21 5b 3f
       0.024909593 -0.5961758 0.39313656 0.8559729
000160 f0 d1 96 3f b3 f1 45 bf 28 12 5a 3f fb 7d db be
       1.1782818 -0.7732193 0.85183954 -0.42869553
000170 39 76 f9 be dd 15 c6 3e 35 27 21 3f 48 e4 c0 be
       -0.4872301 0.38688555 0.6295045 -0.37674165
000180 42 90 80 bf 58 10 82 bf 73 58 1c bf b5 9f 94 3e
       -1.0044024 -1.0161238 -0.6107246 0.29028097
000190 a7 56 53 3f a6 94 90 3f 87 f2 84 3d 73 29 c9 bf
       0.82554096 1.1295364 0.06491571 -1.5715774
0001a0 01 b2 e9 3d 73 69 03 3e 8d 81 7b 3f 19 3e 03 bf
       0.11410905 0.12833194 0.98244554 -0.5126663
0001b0 01 51 d1 be fa c3 8c 3f b8 10 35 3f 70 ba 6a 3f
       -0.40882114 1.0997307 0.70728636 0.9169073
0001c0 fa 4c 73 3f 29 d9 20 3f 39 84 10 3f 2b 60 db be
       0.9503933 0.6283136 0.56451756 -0.42846808
0001d0 3c 1d d4 be d5 67 1a 3f 29 ce 63 3f a9 4e ad 3d
       -0.41428554 0.60314685 0.8898645 0.08462269
0001e0 82 06 96 3e d8 c3 15 3f 56 dd 5e be 49 00 93 be
       0.2930184 0.5850196 -0.2176412 -0.28711155
0001f0 ed 4b 02 bf d4 3c 10 bf 66 ea eb 3e 3c 48 c4 3e
       -0.50897104 -0.56342816 0.4607727 0.3833636
000200 2b 93 5e be 15 2f cf be 5c a5 3f bf 95 98 7c be
       -0.21735828 -0.40465608 -0.74861693 -0.2466758
000210 32 1b 97 3e 58 12 36 3f 62 96 90 3e 8c 5d e0 3e
       0.29512936 0.7112174 0.28239733 0.4382137
000220 e2 af 56 3e 48 84 91 be f9 6a c5 bd 00 0b 42 3f
       0.20965531 -0.28421235 -0.09639544 0.75798035
000230 06 5b 0c 3e 1e cf 98 3d 1b 24 00 bf 92 9f cc 3e
       0.13706598 0.074613795 -0.5005509 0.39965492
000240 63 3c 79 be 98 12 78 bd a4 18 e2 3e e6 86 a7 bc
       -0.24339442 -0.060564607 0.44159424 -0.020450067
000250 35 e7 db be 3c 86 f2 bd c6 ee f3 3e 92 23 f0 3e
       -0.42949834 -0.118420094 0.47643107 0.46902138
000260 3e 9d 46 bc ad f4 5a bf 88 b5 79 bd 18 d4 28 3e
       -0.01212245 -0.85529596 -0.060964137 0.16487157
000270 c5 a4 35 3e 04 5f df 3e 6b b0 f9 be 5c f3 37 3f
       0.17738636 0.4362718 -0.4876741 0.7185571
000280 ea fd 39 3f 8b 0d 8e bc bf 9e 0a 3f f6 30 3b 3d
       0.7265307 -0.017340442 0.5414848 0.04570099
000290 0d 31 1d be db 65 7d bf 39 73 2e bf 07 f4 2a 3f
       -0.15350743 -0.98983544 -0.68144566 0.66778606
0002a0 2c 04 42 3d 8b c5 1d 3f 7f 8c a5 bd 44 7f a2 bd
       0.04736726 0.6162955 -0.08083438 -0.0793443
0002b0 a2 52 97 3f 9c e4 65 be 4f dd 23 3e 49 2e f8 be
       1.1822093 -0.22450489 0.16002391 -0.48472813
0002c0 d4 07 a3 bd ad 6b 1d 3e 9b 60 40 3f 1d 70 14 bf
       -0.079604775 0.15373106 0.7514741 -0.5798357
0002d0 4c 57 91 3d 26 3d 47 3f 76 de 29 bf 25 fd 02 3f
       0.07096729 0.7782768 -0.66355073 0.5116752
0002e0 eb 3f 02 3f 95 00 df 3e 7d 3b 99 3d e1 f4 62 3e
       0.5087878 0.43555132 0.074820496 0.22163726
0002f0 68 b2 ff 3d b9 22 dd bd 51 0b 8f 3e fe 35 5c 3e
       0.124852 -0.107976384 0.2793832 0.21504971
000300 92 74 d3 be 41 75 fa 3e 25 06 ee be 27 7e d5 bd
       -0.41299874 0.48917583 -0.46489063 -0.10424452
000310 2d 73 ac 3f 61 58 21 bf 29 4f 95 bf fd 36 54 be
       1.3472649 -0.6302548 -1.1664783 -0.20724101
000320 e0 0e 90 3f c2 69 9d be 7a f9 b3 be 6b 0f 16 bf
       1.125454 -0.3074475 -0.35151273 -0.58617276
000330 64 14 36 bf 5a 4a 22 bf 53 9c db be 5a b4 85 be
       -0.71124864 -0.633947 -0.42892703 -0.2611416
000340 15 95 17 bf 72 4d 5d bd 98 03 52 3e 7c c7 b2 bf
       -0.59211856 -0.054028936 0.20509183 -1.3967128
000350 9f 05 6f bf e3 4c af be 05 eb 93 3e 35 85 34 be
       -0.9336795 -0.34238347 0.28890243 -0.1762894
000360 81 55 25 be 03 aa 7e 3f 3d 6e cf be 9d d5 48 3d
       -0.16145898 0.9947817 -0.40513793 0.049031842
000370 36 bb 16 3f 59 2a 22 3f 17 fa 76 3e f8 d1 83 3c
       0.5887941 0.6334587 0.24118839 0.016091332

sequential_16/dense_49/MatMul f4 [4, 8]
000000 3c 77 2d c0 3b 97 9d 3f 4a 75 5e 3e ed aa a9 3e
       -2.7104025 1.2311777 0.2172443 0.3313822
000010 46 fd 74 c0 25 7b 0a c0 fc 31 6d c0 a7 36 df bf
       -3.8279586 -2.1637661 -3.7061758 -1.7438554
000020 47 21 54 40 4c dc a6 bf 49 3c 23 be b2 67 78 40
       3.314531 -1.3035979 -0.15940966 3.881329
000030 8a 71 86 40 3e 7d 17 40 06 22 55 40 31 71 cb 3f
       4.2013597 2.3670192 3.3302016 1.5893918
000040 b0 3d de 3f f2 97 aa bf 0f a2 e4 3f c6 40 43 40
       1.7362576 -1.332762 1.7861956 3.0508285
000050 cd 4b 21 40 b4 b3 86 bd e5 0d 4e 3f 3f 21 37 3f
       2.5202515 -0.065772444 0.8048995 0.71535105
000060 ed a3 66 40 1d f5 aa bf 8e 02 5b be 6b 3c a7 be
       3.6037552 -1.3356053 -0.21387693 -0.32663283
000070 bc 33 90 40 fd 8d 17 40 27 47 82 40 19 0d 13 40
       4.506315 2.3680413 4.0711856 2.2976744

sequential_16/dense_50/MatMul f4 [1, 4]
000000 a8 2f 65 40 db b8 1b c0 b2 78 ac bf 1e be 91 c0
       3.5810337 -2.4331577 -1.3474333 -4.5544577
