ml/models/v24.tflite (tflite, 3284 bytes, 5 tensors)

sequential_17/dense_52/BiasAdd/ReadVariableOp f4 [4]
000000 9b d8 18 c0 6a d8 0e c0 d8 f2 02 40 07 0b ea bf
       -2.3882205 -2.2319589 2.046072 -1.8284615

sequential_17/dense_51/BiasAdd/ReadVariableOp f4 [8]
000000 12 8f f3 be 5e 4e 07 bf 83 48 5a bf 20 f0 e9 3e
       -0.4757009 -0.52853954 -0.85266894 0.45691013
000010 4e cf 9b 3f bb d2 94 3e d2 ae 73 3f 9a 09 ef be
       1.2172639 0.29067025 0.9518863 -0.46687013

sequential_17/dense_51/MatMul f4 [8, 28]
000000 c3 40 4d be 59 69 62 be 4f 41 4f 3f 8d 9d aa 3e
       -0.20044236 -0.221105 0.8095903 0.33323327
000010 d2 98 0b 3f c4 5c 46 bf d2 d5 ae bd e4 93 26 3f
       0.5453006 -0.774853 -0.08536877 0.65069413
000020 09 6b 19 3f 6e 1e d9 be 46 6e 9e 3e c9 23 cc 3d
       0.5992895 -0.42406029 0.30943507 0.09967763
000030 78 ed 4c 3e f5 a9 06 c0 a5 be bc bd 23 ce 89 3e
       0.20012462 -2.1041234 -0.0921605 0.26915082
000040 f4 1a f8 bd bb 6b fb 3d b8 7b 25 be 99 00 54 be
       -0.12114516 0.12276407 -0.16160476 -0.20703353
000050 15 e1 04 bf 6c 93 96 3e 1c 46 4a be be 4a b3 be
       -0.5190595 0.2940935 -0.19753307 -0.3501796
000060 89 93 3a bf 6d e3 8f be fc 25 26 3f 33 9c 60 3d
       -0.7288137 -0.281032 0.6490171 0.054836463
000070 0c de 36 3d 42 27 d6 be 6e 51 e4 3e 15 80 b9 3d
       0.044645354 -0.41826826 0.44593376 0.09057633
000080 07 3a 03 3e 8f a6 98 bf ac 62 6c 3f 64 ff 36 bf
       0.12815104 -1.192583 0.9233806 -0.71483445
000090 b7 83 9e bd 5d aa b6 be e9 75 47 3e 2d de 18 3f
       -0.07739966 -0.35676852 0.19478573 0.59714013
0000a0 db da 9d 3e 2d f0 d2 3e 3c 85 b5 3e 27 d4 89 bf
       0.30831036 0.41198865 0.35453212 -1.0767869
0000b0 a3 37 2e be 73 5f 9e 3f 0f d6 d6 be cd ed 06 bf
       -0.17013411 1.2372879 -0.4196019 -0.52706605
0000c0 2e 4c cc 3e 74 43 cd bc a4 03 33 bf 3c 79 14 3e
       0.3990187 -0.025056578 -0.6992743 0.14499372
0000d0 b3 9a 07 3d a7 7f 30 bf 11 a4 f5 be 50 68 0f 3f
       0.033106517 -0.6894478 -0.47976735 0.56018543
0000e0 ea c1 b3 3e 67 20 8b bf 39 98 1b be 6f 3e b9 bd
       0.35108882 -1.0869263 -0.15194787 -0.090451114
0000f0 57 78 10 3f 69 33 85 3f 33 12 2f 3f d7 39 c9 3d
       0.56433624 1.0406314 0.68387145 0.09825485
000100 36 14 8d 3e 74 4b d6 3e c3 30 82 3e 62 23 27 be
       0.27554482 0.4185444 0.25427827 -0.16322091
000110 3e 76 08 3e 40 73 48 3d 96 55 26 3f 42 7c 04 be
       0.13326356 0.048938036 0.64974344 -0.12938026
000120 d2 4e 71 3f d6 67 e4 3c 3c 0b bd bd 8d f4 30 3f
       0.94260895 0.027881544 -0.092306584 0.69123155
000130 f9 77 73 3e 48 d6 8f 3f 27 0f a3 bd d8 b9 cc 3e
       0.23776235 1.1237268 -0.079618745 0.39985538
000140 11 20 d4 be 68 e5 14 bf b6 6b 48 be 7f cb ee 3e
       -0.41430715 -0.58162546 -0.19572338 0.4663963
000150 91 e5 70 3f 21 08 a8 3e 98 1a 6a 3e 93 80 69 bf
       0.9410029 0.32818702 0.22861707 -0.91211814
000160 5e ec 0d 3f 63 c3 a8 3f c0 e2 d1 be d2 d2 f1 be
       0.5543879 1.3184627 -0.4099331 -0.47231156
000170 b0 90 ad 3e 83 9c bb 3c c7 aa 24 3f 7a 85 4d 3e
       0.3389945 0.022901779 0.64323086 0.20070449
000180 1c ae 35 bd 7f 07 a0 be 27 58 ea be b3 f9 0f 3f
       -0.044355497 -0.3125572 -0.4577038 0.56240386
000190 de c4 ed be e0 15 cb 3d 7d 1c e1 3d 56 3c 76 3e
       -0.4643926 0.09916282 0.10991762 0.24046454
0001a0 17 1b 74 bd 97 ec 2f 3f a6 60 3e be 46 0b 4c 3e
       -0.059596147 0.6872038 -0.18591556 0.19926175
0001b0 fc b9 c7 be 17 72 55 bf 8d 2e 87 3f 40 b2 a4 bd
       -0.39009082 -0.8337721 1.0561081 -0.08041811
0001c0 2d e6 8b 3f 1a 26 0b 3f 15 6c 81 bf 68 fe ac bc
       1.0929619 0.54355013 -1.0111109 -0.021117404
0001d0 43 13 c8 3e 41 c2 c3 be 07 43 e5 3e e5 7a 49 bf
       0.39077196 -0.3823414 0.447777 -0.7870315
0001e0 79 e6 67 be 98 fb 10 be 60 c7 09 bf a8 a2 2d bf
       -0.22646512 -0.14158475 -0.5381985 -0.6782632
0001f0 cc a4 05 3d 17 71 84 3e 67 5a 20 3f e4 f3 54 bf
       0.032627866 0.2586753 0.62637943 -0.8318465
000200 dd 2d 41 bf 0a 9f d3 be 39 b5 26 be 6c fc 9d be
       -0.75460607 -0.41332275 -0.16280068 -0.30856645
000210 99 45 64 3f 26 ea 4c 3f 6b 3a 71 3e 06 5d d5 be
       0.891687 0.8004478 0.23557441 -0.41672534
000220 ee 4e 98 3f c8 c4 88 3f e2 fd 97 3e 7e cd 4a 3f
       1.1899087 1.0685053 0.29685885 0.79219806
000230 b4 3b 1c bf 90 31 9b bf c1 3a af 3e 39 c3 48 bf
       -0.610286 -1.21245 0.34224513 -0.78422886
000240 01 da b7 be 5e 18 34 bf 0c 01 b8 bc ac 7a 19 bf
       -0.3590851 -0.7034968 -0.022461437 -0.5995281
000250 3f 8b 08 be 8d 4e 0e 3f a4 36 aa be f2 31 c9 3e
       -0.13334368 0.5558861 -0.33244812 0.39295918
000260 6a 21 00 3d 4e 6b f7 be af 78 b1 be 5f d7 fa be
       0.031281866 -0.48324054 -0.34662387 -0.4899244
000270 c2 b5 78 3f d5 09 ae be d5 9a 85 bd c3 c7 a1 be
       0.9715234 -0.33991876 -0.065236725 -0.3159772
000280 d5 e5 b1 be d8 18 41 bf 63 b0 ab be 96 6c 49 be
       -0.3474566 -0.75428534 -0.3353301 -0.19670328
000290 9f 48 07 bf 5d 7b 1d bf 21 0e a4 be e2 4f e4 3d
       -0.52845186 -0.6151636 -0.3204203 0.11148049
0002a0 35 28 01 3f 04 31 40 3f 06 23 c1 3e d6 09 e9 3e
       0.50451976 0.7507479 0.37722033 0.45515317
0002b0 e5 25 bc 3f 60 84 73 3f f6 3d 40 3f 12 ec 51 3d
       1.4699064 0.95123863 0.75094545 0.051250525
0002c0 9a 49 99 bc 23 6a 27 3e b3 2c fd 3e 71 2d 60 3e
       -0.018711854 0.16349082 0.49448165 0.21892335
0002d0 c2 71 0b 3f 12 c3 09 3f 45 03 8a bd 1e 32 26 3f
       0.54470456 0.5381328 -0.06738905 0.6492022
0002e0 ba 80 e9 3e 7b 6c a2 3e 08 2b b4 3e a1 13 77 bd
       0.45606023 0.3172339 0.3518908 -0.060321454
0002f0 3e 71 23 3f 34 ed 51 bf 76 14 ab 3f 58 7b 9d 3f
       0.6384467 -0.8200257 1.3365619 1.2303267
000300 30 eb 00 bf 75 b9 30 3f 31 5e a0 be 7b 09 4d 3f
       -0.5035887 0.69032985 -0.31321862 0.8009259
000310 9a c7 10 3f 39 d1 e3 be f0 ba aa 3f 30 2c de bd
       0.5655457 -0.44495562 1.3338299 -0.10848272
000320 ba 2d 01 3e 7e 91 6b 3e ac e5 b7 3c 7d 31 65 3d
       0.126151 0.2300472 0.022448383 0.0559554
000330 31 97 30 be 7f e6 4c be 46 f5 94 3e e3 60 03 3f
       -0.17245175 -0.20009802 0.2909338 0.5131971
000340 5f e1 cb be 77 cb a4 3f 79 92 48 bf 5c 82 4f be
       -0.39820382 1.2874593 -0.783485 -0.20264572
000350 10 6f 75 3e 68 d3 3f bf 19 41 61 3f 44 83 98 be
       0.23968148 -0.74931955 0.87989956 -0.29787648
000360 0b c6 e3 3e 3a 44 b6 be e4 91 96 3d 36 4d 61 3d
       0.44487032 -0.35598928 0.07352045 0.055005275
000370 f4 9e 84 bf 41 1f 1c bf 56 8b de 3e a5 d9 26 bf
       -1.0361009 -0.6098519 0.4346568 -0.6517585

sequential_17/dense_52/MatMul f4 [4, 8]
000000 40 6d 9e bf 90 a3 07 40 bb 03 e9 bf 48 fa 9f 40
       -1.237709 2.119358 -1.8204263 4.999302
000010 d9 b9 8b 40 2f 44 96 3f f2 5b 45 40 f7 69 ec bf
       4.3664365 1.1739558 3.083737 -1.8469838
000020 67 e5 8c bf 9b 28 fe 3f ee b9 dc bf a3 2a 9f 40
       -1.1007508 1.9856142 -1.7244241 4.9739547
000030 9b 68 80 40 1b 7e 85 3f ce 1b 38 40 f1 c4 dd bf
       4.012769 1.0429109 2.876697 -1.7325727
000040 fc 01 64 3f 84 ba f2 bf 37 9b b4 3f 50 8a d1 c0
       0.8906553 -1.896317 1.4109868 -6.548134
000050 63 a1 a7 c0 9c 00 83 bf 0c 83 e5 bf 4b 69 e6 3f
       -5.2384505 -1.0234561 -1.7930617 1.8000883
000060 07 f4 b1 bf 92 1f 6e 40 bc a0 ad bf fa f4 87 40
       -1.3902596 3.720677 -1.3564677 4.2486544
000070 4b 19 90 40 55 18 4c 3f de 1d ef 3f a5 a4 24 bf
       4.5030875 0.7972463 1.868099 -0.6431373

sequential_17/dense_53/MatMul f4 [1, 4]
000000 a9 b0 74 c0 90 c6 59 c0 fb 1d af 40 4a 2a 8e c0
       -3.8232825 -3.4027443 5.4724097 -4.4426622
